gomoku-app/backend/model.pt (torch, 454188 bytes, 17 tensors)

stem.0.weight f4 [15, 3, 3, 3]
00000000: 2586 2f3e 6b22 35be bec0 d13d 5ad8 04be
00000010: a43a 353e c408 44be 9bf8 f03d e898 96bd
00000020: 8d97 3d3e 0f5e 22bd 4660 08be a613 97bd
00000030: b1d3 023d d399 24be 7c87 91bd 418b a63d
00000040: b4a1 0f3d 962b 023e 019a 0d3e 7f68 d33d
00000050: f0e2 763d fb44 30be b54a 1abe 51d5 743d
00000060: 6683 92bd 6a56 5bbd 6788 24be aa01 403e
00000070: 8aec 41be bc50 a73d 4e90 abbc f14b 063e
00000080: 4899 c03d 80eb 2bbd d000 2f3c 5701 adbc
00000090: 21b7 c1bd b22a aa3d 11e4 1b3e 0a37 e9bc
000000a0: a716 1a3d ff89 963d beba 163d 9814 373d
000000b0: 5388 20be dc36 d7bd 76eb 9abd 654b ab3d
000000c0: c0f0 17be 626a 28be c839 1dbd 1a7e 2f3e
000000d0: da03 3c3e 5c22 3ebd 4342 173d 61fa 333e
000000e0: 2e3a a93d 63ea 38be 4f63 233e 5dfa 40be
000000f0: 0a18 dabd ab77 843d df67 823d fa81 f83c
00000100: 8dee 293b 95ad f13d e617 163d c8ce 273c
00000110: 1b03 0a3e cc76 e5bd b930 43be 2526 113d
00000120: 5210 403e ab89 2cbe e960 2c3d ab22 06be
00000130: 5d76 ddbd 5126 edbd 7483 033e dd61 003e
00000140: 4f44 ac3d ac21 35be 179c 57ba ac30 b2bd
00000150: e31d fe3b 5a26 953c 7603 303e a362 0e3e
00000160: ae53 f73d 314c abbd ded1 913d aa65 1a3e
00000170: 9eeb 7ebd c78a 133e 474e ca3d 8f3f f13d
00000180: 2f7a 43be 154b 3f3c 8053 d2bd 0828 2d3d
00000190: 2826 12be ee3b e23d 1952 d3bd 49af febd
000001a0: 4fd8 e73c a19c 233e 2843 eebd 5d3d 2f3e
000001b0: beed 233e b512 ed3d 3d19 ac3c fe85 20be
000001c0: 5000 47bc 9e2f 50bd de48 a4bd ec9b 15bd
000001d0: ab55 0ebe 7379 c7bd 2bdc 283d 2063 b83c
000001e0: d793 393e b2eb 263d e1c7 f4bd 81e8 ce3d
000001f0: 16b0 083d c32d a23d bcf3 3c3e ea14 f5bd
00000200: 96ff fb3d b985 f1bd 0cdf 853d 3a67 d7bd
00000210: c414 85bd 3d27 34be 561b 84bd e431 893d
00000220: 688e 873d 588c c13d 7ba9 0cbe f44e 5a3d
00000230: 0b5a 41be b839 313e f2cc 2abe d57c 243e
00000240: 09fa 9f3d 79b0 f1bd 6d6a f23d c494 fcbc
00000250: 6e86 f43d 31a6 9f3d 6d0d 1dbd e71e e9bd
00000260: cd17 ecbd e770 ae3b 405e 6e3d 8cb5 ba3d
00000270: 13a5 2e3d 0720 2e3d cca5 2d3e 9905 d73d
00000280: c3c6 a0bd f6d8 e93d 1a1c 853d fc51 d9bd
00000290: feda 843d 51ff 17be 860e 6fbb fcf2 523d
000002a0: d82d 9fbd b2f3 453a f6b6 c93d 3829 3dbc
000002b0: 44e7 f2bd 2d80 3f3e 54d0 aabb 1a9a 5c3c
000002c0: f68e 2ebd 3d01 02be 4b2e f4bd a70d abbd
000002d0: 44f7 273d c620 eb3c 736a 0d3d beb5 24bc
000002e0: 2454 2a3c 9e41 383e ab6e 7d3d 166f 1b3c
000002f0: 76a6 1d3e e713 813c f023 f73d 5c3a 31be
00000300: 0d90 71ba 7b7e 313e fba8 18be 23b1 c4bd
00000310: c55a 163e c9e6 edbd 6220 093e 89d1 003e
00000320: 72b2 d83d 3175 36bd 12e1 eb3d 1068 fb3d
00000330: 0630 e83d d2ab 96bc 7a85 84bd bc80 193e
00000340: 8ff9 383e 5952 233d c5ac 15bd eceb 863c
00000350: a6ba a2bd dad9 2c3e e065 fa3d b033 d2bb
00000360: 7b3d 9cbc 1c3a 30bd 0cd9 183e 6e95 33be
00000370: 04b0 0cbe d5f2 1a3e c908 1abd a471 09be
00000380: 6433 083e 956e 63bd 5dbc 5cbd b3de e33d
00000390: 670f 23bd 4402 323e 5aa2 ec3d 8fc8 623c
000003a0: 97c0 f7bd 58bb e03d acd5 f63d 4853 a33c
000003b0: 4911 35bc 3c5b b7bc 4d7f 3ebd 96da d93d
000003c0: c719 2b3e 4f51 7c3d 9afa 3c3e 2e8a babd
000003d0: 87f0 a73d f103 7bbc b156 05bd 9803 03be
000003e0: 5a98 3fbd 00d0 febd f4e9 653d ad15 90bd
000003f0: 652a 02be 4f0c 27bc 0fa4 343e 1db2 2abe
0.17141016 -0.1768891 0.10241841 -0.12973157 0.17698151 -0.19143969 0.11766168 -0.07353383
0.18514843 -0.039640483 -0.13317975 -0.073767945 0.031940166 -0.16074304 -0.0710592 0.08132029
0.03506632 0.12711939 0.13828279 0.103226654 0.06027502 -0.17213814 -0.15067561 0.059773747
-0.071539685 -0.053549208 -0.16067658 0.18750635 -0.18937889 0.08169696 -0.020942833 0.13114907
0.09404236 -0.041972637 0.010681346 -0.021118803 -0.09458757 0.08308925 0.15223719 -0.028468627
0.03761926 0.073505394 0.036799185 0.044697374 -0.15677004 -0.105085105 -0.07564442 0.0836399
-0.14837933 -0.16446832 -0.038385183 0.17137948 0.18360844 -0.046419486 0.036928426 0.1757598
0.0826305 -0.18058161 0.15955852 -0.18845506 -0.10649116 0.06468137 0.06367468 0.030335415
0.002592954 0.11800686 0.036643885 0.010242172 0.13477747 -0.11204299 -0.19061555 0.035436768
0.18756226 -0.16849391 0.04208461 -0.13099162 -0.10813592 -0.11579574 0.12843114 0.12537332
0.08411466 -0.17688626 -0.00082248583 -0.0870069 0.0077550276 0.018206764 0.1718882 0.13904814
0.120765075 -0.08364142 0.07120107 0.15077844 -0.06223642 0.14408408 0.098782115 0.11779701
-0.19089578 0.011675616 -0.102698326 0.042274505 -0.14272368 0.11046587 -0.10318393 -0.12435777
0.028301386 0.15977718 -0.11633903 0.17113252 0.1600866 0.11575834 0.021008128 -0.15676114
-0.012146071 -0.05082666 -0.08021711 -0.03652565 -0.13899867 -0.097399615 0.041225594 0.022508204
0.18122803 0.04075212 -0.119521864 0.1010294 0.033371054 0.079188846 0.18452352 -0.1196688
0.123046085 -0.11793084 0.065366834 -0.10517736 -0.06498101 -0.17593093 -0.064505264 0.06698969
0.06618959 0.094505966 -0.13736527 0.05329795 -0.18882005 0.17307174 -0.16679743 0.16063245
0.07811362 -0.118012376 0.11836705 -0.030832656 0.11939703 0.0779537 -0.038342882 -0.11382847
-0.11527977 0.0053235176 0.058195353 0.091166586 0.042637896 0.042511012 0.16957778 0.104991145
-0.07850411 0.11418335 0.064995006 -0.106113404 0.06487082 -0.14843489 -0.0036477163 0.05150126
-0.07772416 0.0007551267 0.0984935 -0.011545472 -0.11860517 0.18701239 -0.005212823 0.013464475
-0.042616807 -0.12695785 -0.11922892 -0.08352213 0.041007295 0.028702151 0.034525346 -0.010053096
0.010396037 0.17993781 0.06187312 0.009486934 0.15395531 0.01575656 0.120674014 -0.17307419
-0.00092148856 0.17333405 -0.14908211 -0.09604099 0.14683063 -0.116162844 0.1339126 0.12579931
0.10580911 -0.044545356 0.11517538 0.12275708 0.11337285 -0.018392477 -0.06470771 0.14990515
0.18063949 0.039873455 -0.03654172 0.016469918 -0.079457566 0.16879979 0.12226462 -0.006414853
-0.019072285 -0.043024167 0.14926547 -0.17537472 -0.1373902 0.15131696 -0.037606034 -0.13422257
0.13300854 -0.05552538 -0.053890575 0.11126461 -0.03980961 0.17383677 0.115544036 0.013841762
-0.120972805 0.10973233 0.120524734 0.019937173 -0.011051484 -0.022382371 -0.046508122 0.10637395
0.16709052 0.06160098 0.18454972 -0.09108387 0.08200174 -0.015320764 -0.03255338 -0.1279434
-0.046776153 -0.124420166 0.05613132 -0.07035384 -0.12711485 -0.010195806 0.17640708 -0.16669507

stem.0.bias f4 [15]
00000000: 5bee cbbd ad8a 1a3e ecca 3e3e 593e 1ebe
00000010: db64 ce3c a172 1dbd fa9c 343e 9c53 8e3d
00000020: 0f31 fbbd 8d30 063e 0f4b 473d 2dac f0bd
00000030: 52d0 c8bd 53b5 a7bd 3cd0 de3b
-0.09957572 0.15091963 0.18632096 -0.15453471 0.025194576 -0.038439397 0.17638007 0.06949541
-0.122652166 0.13104458 0.048655566 -0.1175159 -0.09805359 -0.08188882 0.006799726

stem.2.weight f4 [15, 15, 3, 3]
00000000: 9f2d 963d db0d b7bc 3e3e 963d 674d a9bd
00000010: 8b03 97bc 9dcc 29bd bda0 3bbd 0cf7 15bd
00000020: fdf2 afbd bca6 5e3d 4a21 813d ce45 4a3d
00000030: 1afa adbc de38 6abc 5d8a 12bd 6ff2 03b9
00000040: 301f a4bd 1cca a6bd 8d93 99bc 030d 9c3d
00000050: 3ed9 913c 552c 1f3d 5899 823d b18a 873b
00000060: e3b2 fcbc 2a09 193d 7f90 00bd 91c4 943c
00000070: e3c9 953d 16bd a93d c391 553d 608a 753d
00000080: fe02 1fbc 15e5 8d3c 2e0e 36bd f1a6 1fbc
00000090: 53ab 9e3d 2e4c 4a3c 5bf1 873d b5ad fe3c
000000a0: a207 e2bc ed8f e9bc d1d8 6fbd aab1 7d3c
000000b0: aee2 87bd 4077 9abd 7edf 533c e47d 8c3d
000000c0: 60af 9a3c 6be3 7bbd d1b8 21bd a2e1 983b
000000d0: b78b 56bd 7d4c adbd f4f2 8cbd 9eff 223d
000000e0: f87d 5f3c 9728 913d c172 40bd 9127 55bd
000000f0: c36e 6d3d 1cbe 173d 2451 753c 13d8 113d
00000100: 6fd4 ab3d fddd 7a3d aca2 0ebd 73ab 643d
00000110: efd3 07bb 6a19 99bd 1737 5d3d 1b07 153d
00000120: 1276 23bd b568 9dbd dbe3 5fbd c72e 94bd
00000130: 8e6b 943d 5203 8ebd 2bf2 683d 683e c13c
00000140: accc 2bbc e0e4 eabc bcc3 0f3d 06eb 703d
00000150: 573d e93c 9879 f63c 7acf 85bd 21a3 863c
00000160: fd6b 963c 2125 97bd 09a1 f1bc e4c3 133c
00000170: 740e 893d a42e 02bd a090 043b 5af0 923d
00000180: 1662 60bd 90b2 a4bd 9060 3d3d 1125 8c3d
00000190: e0fb 013c 4496 a4bd f6a5 48bd ff95 7dbd
000001a0: 71c1 983c d18a 2f3c 514c 8bbd a912 f2bc
000001b0: 9011 843b b6b9 203d f8d4 42bd 78ca 80bc
000001c0: 5dfc 1d3d 018b 38bd ed0f 253d 7295 89bd
000001d0: 8399 83bd 58f6 8e3d 8f57 31bd 80e8 ac3d
000001e0: adf6 1e3c 5fa4 abbd 9402 6bbd f138 9abd
000001f0: a5c6 a43d 31cd 273d a4c5 bb3c f6e1 15ba
00000200: ddcc dfba df72 773d ecf8 a6bd 12ca a43d
00000210: 4bd8 0abd 86dd da3b 607a 523d 15b1 8a3d
00000220: b680 96bd ba8c a33c 0243 8c3d 5521 833d
00000230: c158 a93d 07e8 58bd d541 36bd 5094 23bc
00000240: daba d93c 0c53 8f3c 7b47 2e3d c250 863d
00000250: 4dff 123d 1b9d 0b3d 08db f1bc 5dc1 aabd
00000260: a1e5 acbd d366 0c3c 80cd 61bd bbc2 5b3d
00000270: 0890 02bd a709 253d 151f afbc 7e64 35ba
00000280: 4694 6dbd 7969 97bc 1d82 3ebc c6bb 723d
00000290: 91f2 aabd 0074 8fbd f88a b93b 8cbd 913d
000002a0: ca65 333d 05f8 a2bd 2a76 5d3d 0132 afbd
000002b0: 143a 233d d3cf 53bd a2d9 9e3d d08b 70bc
000002c0: cf3e 933c f33e 26bc b094 133d afe2 58bd
000002d0: e221 0dbd 070b b93c e795 9cbd 8a08 75bd
000002e0: e88e fabb 67d0 c3bc e6c6 87bd a1a1 563b
000002f0: 7d94 e73c 4f2c a53d b64f da3c df2e 4fbd
00000300: dd0c 83bd 3b90 8bbd 9a99 073d 692e 06bd
00000310: 541d b4bc 1e99 483d 4d3c 9d3d 1147 e13b
00000320: a5d7 c53c 1d93 1cbb 38a1 9b3c 6717 313d
00000330: 3620 8ebb 3b4e a3bd ca88 32bc f5c2 ebbc
00000340: 1430 e8bc 8128 403d c7d0 25bd 0c7e ae3c
00000350: b23b edbc 69f0 9d3b 3650 1a3d dece feb9
00000360: 04e2 9b3d 7270 963d 3220 883d 5f1b 3dbd
00000370: fa21 2e3d 2180 acbd 3136 d3bc 9520 4f3d
00000380: 3a96 9dbd 4eb4 113d b5f7 5abd 44ef 913d
00000390: 26b1 a0bd 49bc 8f3d 3a17 e03c 6674 283d
000003a0: 498b 15bc 2b12 8f3d 3183 96bd 0cb5 253d
000003b0: f351 7e3d 31ed 8d3d 2f0d 1fbc fe10 65bb
000003c0: fadc a1bd 6199 fdbc eedb 723d 0d0f 0bbd
000003d0: 8f74 bf3c de79 be3c adb7 6dbd e4e0 a33c
000003e0: 19ef ab3c 78a7 2a3d 3326 763d c163 7abc
000003f0: fd1f bcba 3d9e 833d bc2b a03c f7b6 23bd
0.0733292 -0.022345474 0.073360905 -0.082667165 -0.018434307 -0.0414549 -0.04580759 -0.036612555
-0.08591268 0.05435823 0.063051775 0.049382977 -0.021237422 -0.014295785 -0.035776485 -0.00012583447
-0.08013761 -0.08144018 -0.018747116 0.07619669 0.017803784 0.038860638 0.06376904 0.0041364064
-0.030847019 0.037362255 -0.031387802 0.018160136 0.073138975 0.082880184 0.052140962 0.059946418
-0.009705303 0.017321149 -0.044447117 -0.009744392 0.07747521 0.012347264 0.06637832 0.03108869
-0.02759153 -0.028511012 -0.05855638 0.015484253 -0.066350326 -0.075422764 0.012931703 0.06859949
0.018882453 -0.06149618 -0.039482895 0.0046655694 -0.052379336 -0.084618546 -0.06882277 0.039794557
0.013640873 0.0708782 -0.046984438 -0.052039687 0.05796696 0.037046537 0.014972959 0.035606455
0.08390128 0.06124686 -0.034823105 0.05582757 -0.0020725688 -0.074755505 0.054007616 0.03638373
-0.039907522 -0.07685987 -0.05466066 -0.072354846 0.07247077 -0.06934227 0.056871574 0.023589328
-0.010485809 -0.02867359 0.035098776 0.058817886 0.028471632 0.030087277 -0.06533714 0.016435208
0.01836204 -0.07380129 -0.029495733 0.009018872 0.0669221 -0.03178276 0.0020227805 0.0717475
-0.054781042 -0.080418706 0.046234667 0.06843007 0.007933587 -0.080364734 -0.048986398 -0.061910626
0.018646928 0.010714249 -0.068016656 -0.029549913 0.004030414 0.039239608 -0.047566384 -0.015721545
0.03857075 -0.04505444 0.04029839 -0.067179576 -0.064257644 0.0698058 -0.043296393 0.08442783
0.009702367 -0.08380961 -0.057375506 -0.07530392 0.08045701 0.04096717 0.02292139 -0.000571757
-0.0017074604 0.060412284 -0.08152947 0.08046354 -0.03389768 0.0066792397 0.051386237 0.06772057
-0.073487684 0.019964565 0.06848718 0.06402842 0.082688816 -0.052955654 -0.044496376 -0.009984091
0.026578356 0.017495655 0.042548638 0.06558372 0.035888005 0.034085374 -0.029523388 -0.08337662
-0.08442236 0.008569437 -0.05512762 0.053652506 -0.03187564 0.04029241 -0.021377126 -0.00069195766
-0.058002733 -0.01848291 -0.011627701 0.059261106 -0.08347047 -0.07004547 0.0056623183 0.07116231
0.043798245 -0.07957462 0.05406777 -0.08554459 0.03985031 -0.05171187 0.07756354 -0.014681771
0.017974285 -0.010146844 0.03603047 -0.052950557 -0.03445614 0.022588266 -0.07645779 -0.059822597
-0.0076464303 -0.023903085 -0.06629734 0.0032750147 0.028269047 0.08065092 0.026649337 -0.05058181
-0.06398938 -0.06814619 0.03310547 -0.032759104 -0.021986641 0.04897415 0.07677517 0.006874927
0.024150679 -0.0023891397 0.018997774 0.04323521 -0.004337336 -0.07973906 -0.010896871 -0.028779486
-0.028343238 0.046913628 -0.04048231 0.021300338 -0.028959129 0.004819919 0.03767415 -0.00048600783
0.076114684 0.07345666 0.06646766 -0.04616868 0.04251287 -0.08422876 -0.025782676 0.050568182
-0.07694669 0.035572343 -0.053458888 0.071257144 -0.078462884 0.070183344 0.027354825 0.04112663
-0.009127446 0.06985887 -0.073492415 0.040455863 0.06208987 0.06930006 -0.009707733 -0.0034952755
-0.07903476 -0.030956926 0.059291773 -0.0339499 0.02337101 0.02325147 -0.058036495 0.020004697
0.020988034 0.041663617 0.060095023 -0.015282572 -0.0014352795 0.06426666 0.019552104 -0.03996941

stem.2.bias f4 [15]
00000000: 58e2 9a3d b343 d1bc 47af 4e3d bfff 81bd
00000010: 6cfe 383d 3214 373c c375 f9bc 6508 8e3c
00000020: 70cd 7dbd 848d 853d fa37 723d 0177 2c3d
00000030: e090 5abd 75b7 a1bd 4f91 9c3c
0.07562703 -0.025544977 0.050460126 -0.06347608 0.04516451 0.0111742485 -0.030451661 0.017337987
-0.0619635 0.065211326 0.059135415 0.04210568 -0.05336082 -0.0789632 0.019112257

stem.4.weight f4 [15, 15, 3, 3]
00000000: def4 4e3c d1b6 66bd 72f0 d1bc 44a1 5fbd
00000010: 9f47 9c3c a6e6 8c3d 2291 32bd c793 23bd
00000020: 563f 9d3d 615f 883d 3781 4abd 1e08 6a3c
00000030: 4071 1cbd fc7d 9a39 12bb 103d 6406 a33c
00000040: b480 873d c37e 9f3c ba9b 483d b6db 1f3c
00000050: ed80 53bd fd21 a0ba 907d dbba 6f8c 573d
00000060: c523 923d 6564 af3c f104 82bd 01b2 9a3d
00000070: fb2c 463c 71ec af3c 2ff2 4bbc 7e7c e83b
00000080: 15b1 3dbc 7b81 8abd 5662 5e3d 9e95 833c
00000090: cbc8 84bd b7b8 503d 0e34 ca3c 1111 64bd
000000a0: 03bb a6bd 264e c43c 0bc3 f73c 646d 193b
000000b0: 790d 87bd 375d 89bd 9eb8 94bd b571 7bbd
000000c0: 706d 35bd 0d30 923c 7301 2a3d 6b0b f0bc
000000d0: acfe 02bd f52b 81bd 8585 34bd 658f b13d
000000e0: 4b7f 90bc 90b1 ad3d 1a89 463d 5e35 b03d
000000f0: ab3f e93c 0936 68bd f559 b8ba 670e 12bd
00000100: 097a 8cbd b155 793d 82bb dbbc 9d6a 773d
00000110: bb29 573c fe19 81bd 35da 333c cc6d 983c
00000120: cd9d 9a3a a6b5 84bd 36fb a93d 8d8a 55bc
00000130: e7c9 51bd ee22 25bd 5e12 77bd ca0e a2bc
00000140: 30a9 203d 8ad5 08bd 6455 01bd 3286 823d
00000150: becf 6ab6 e3aa e5bb 7145 9a3d 8417 213d
00000160: 1a63 c73c 96f9 3b3d 3123 843a c938 4bbd
00000170: 135c ac3d 27d5 10bd 1bcd c7bc da26 5abd
00000180: d386 0e3d 8512 85bd 67cc 67bd 1f2b 9abd
00000190: 613e 4cbd 29ee 87bd 79eb 953d 1d81 d0bc
000001a0: 417b 883d feaf 773a 1bb4 a3bc e51b 963d
000001b0: ce29 25bd f4ba 093d 8ec6 a73d 3b4a 25bd
000001c0: e808 3f3d 94c9 08bd 0e49 a5bd 3fbf 1b3d
000001d0: 39f2 803c 04a9 8c3d 7413 943d 2a03 3d3d
000001e0: 2340 2abc b67a 2e3d d02a 48bc 807b 943d
000001f0: 10d5 023d 366d 59bd 4233 4d3d 1abc 20bd
00000200: 868c 4c3d 6e7c 743c a672 5ebd aa5f 0a3d
00000210: cd72 553d 0860 643d 16e5 76bd 062f 613d
00000220: 343e 12bd 4ec1 663d 0f45 10bd 031b 873c
00000230: 49fb a83d ea9d 93bd 5435 9d3c 7043 6dbd
00000240: 7e9d 7a3d 07bf 82bd f246 713d aa50 303d
00000250: a4fc 60bd 5cec 023d d377 23bd b044 893b
00000260: 598c 3a3d 489d 93bc 86da 71bd c017 eb3c
00000270: 73ce cb3b 053f bdbc cd21 1e3d 8ec7 6a3d
00000280: 0927 85ba afa9 b1bc 14be c23c 6a7e 2b3d
00000290: f00c f63b 248b 76bd 0c41 0d3d b41a ae3c
000002a0: 10ad 52bc 54d2 e2bc e172 a13d ae47 433d
000002b0: 4010 d8bb 54fa 50bd 9339 7fbd 0861 22bd
000002c0: e7bf 53bd f0d9 f6bc c4a8 593d 8028 60bd
000002d0: 6452 953c 72f8 eabc 14b4 133d abb9 073d
000002e0: 7250 16bd f47a 16bd b0ae e03c 5846 75bc
000002f0: c0e9 473b 7aae 84bd 846a 1c3d 0802 e9bc
00000300: 3a06 98bc 2e7e 19bb 7ae4 883d ed14 213d
00000310: 5867 003c b3f4 f13c 89a3 913d 0f63 9c3d
00000320: 1cd0 81bd 905e 463d 1a11 823c 1be2 443d
00000330: e822 8ebd 2fab 02bd 32a2 313d b0bf 443c
00000340: 30f8 df3c fa2e 9cbd 57df 32bc 8a8c 553d
00000350: d60d 32bd b4fb 0dbd 2554 0e3d f20c 453d
00000360: 32ca aabd 2e82 463d 455b 9abd 7392 dbbc
00000370: 9218 adbd 5ee5 413c 6622 583d 7291 063d
00000380: 4970 973d 41ef 9d3d 301a 85bc 8ff5 8c3d
00000390: c3e3 acbb cc2f 42bd c056 73bd 0787 92bc
000003a0: d44e d5bb 426c 00bc a6c2 7bbd b825 46bc
000003b0: 9045 6e3c 3c76 123d 7350 2d3c 5117 ab3c
000003c0: 2583 593d d4b2 b63b 86fb a3bd 3311 23bd
000003d0: 26c0 243d c08f edba fad0 033c 7bc5 a7bd
000003e0: bf53 01bd a817 983d a7c5 463d 971e 3fbd
000003f0: 4285 e2bc f083 66bd 40d8 edbc 0346 87bd
0.012631623 -0.05632669 -0.025627349 -0.054597154 0.01907712 0.0687993 -0.04359544 -0.039935853
0.07678096 0.06658817 -0.049439635 0.014284162 -0.03819394 0.00029467035 0.035334654 0.019900508
0.06616345 0.019469624 0.048976637 0.009756973 -0.051636625 -0.001221716 -0.0016745795 0.052624162
0.07135729 0.021410177 -0.06348599 0.07553483 0.012095685 0.021475049 -0.012447878 0.0070949188
-0.011577864 -0.06762978 0.054293 0.016062554 -0.06483611 0.050957408 0.024683025 -0.05568034
-0.081411384 0.023963045 0.03024437 0.002341115 -0.065943666 -0.067072324 -0.072617754 -0.061387736
-0.04429382 0.017845178 0.04150529 -0.02930232 -0.031981155 -0.06307212 -0.044072647 0.086699285
-0.017638823 0.08481133 0.048470594 0.08603929 0.028472742 -0.056692157 -0.0014064895 -0.035658266
-0.06859214 0.060872737 -0.02682281 0.06040441 0.013132508 -0.06303786 0.010977318 0.018607043
0.0011796296 -0.06479959 0.08299868 -0.013033521 -0.05121794 -0.040316515 -0.06032025 -0.019782443
0.03922385 -0.03340677 -0.031575575 0.06373252 -3.498964e-06 -0.0070088967 0.07532776 0.039329067
0.024339247 0.04589232 0.0010081289 -0.0496147 0.08415999 -0.035359528 -0.024389794 -0.053259708
0.034796547 -0.06497673 -0.056591418 -0.07527756 -0.049864177 -0.06637222 0.073203035 -0.025452191
0.06664134 0.0009448527 -0.019983342 0.07329539 -0.04032307 0.033625558 0.08192168 -0.040353995
0.046639353 -0.033395365 -0.08070575 0.038024183 0.0157405 0.06868175 0.07230273 0.046145596
-0.010391268 0.042597495 -0.012217239 0.07250118 0.031941473 -0.053082667 0.05009771 -0.039241888
0.0499387 0.0149222445 -0.054308556 0.03378264 0.052111436 0.055755645 -0.060277067 0.054976486
-0.035703853 0.056336693 -0.03522211 0.016492372 0.08251054 -0.07207854 0.019190468 -0.05792564
0.061185353 -0.06384092 0.05890555 0.043045677 -0.054928437 0.03196369 -0.039909195 0.0041890964
0.045544002 -0.018019333 -0.05904629 0.028697848 0.006219679 -0.02310134 0.038606454 0.057319216
-0.0010158728 -0.021687357 0.023772277 0.041868605 0.0075088665 -0.06019129 0.03448586 0.021252967
-0.012858644 -0.027688183 0.078832395 0.04767578 -0.006593734 -0.05101998 -0.062310766 -0.039643317
-0.051696684 -0.030133218 0.053139463 -0.054726124 0.018227763 -0.028682921 0.036060408 0.03313605
-0.036697812 -0.03673835 0.027427047 -0.014970385 0.0030504316 -0.06478591 0.03818752 -0.028443351
-0.018557657 -0.0023421156 0.066842034 0.039326597 0.007837139 0.029535627 0.0711127 0.076360814
-0.06338522 0.048430026 0.015877295 0.048067193 -0.069402516 -0.031901535 0.043367572 0.0120085925
0.027340025 -0.076261476 -0.010917506 0.05213598 -0.043470226 -0.03466387 0.034748215 0.04810805
-0.08339347 0.048463993 -0.075369395 -0.02680323 -0.08451952 0.011834471 0.05276718 0.03285355
0.073944636 0.0771165 -0.016247839 0.06882774 -0.0052761748 -0.047408864 -0.059408903 -0.017886652
-0.006509641 -0.007838311 -0.061464928 -0.012093954 0.014542952 0.03575729 0.010578263 0.020885142
0.053103585 0.005575517 -0.08006959 -0.039811324 0.04022231 -0.0018124506 0.008045429 -0.08191963
-0.031574007 0.07426387 0.04852834 -0.046660032 -0.027651433 -0.05627817 -0.02903378 -0.066051506

stem.4.bias f4 [15]
00000000: c5e1 59bc 215e 1dbd 83de d93c 10d3 8cbc
00000010: 775f 6c3d 802d eebb a2a6 383d 8f82 cabc
00000020: 38c5 773d 721d 1b3d f489 083d 365a 9c3d
00000030: d9cc b93c eedb 67bd a475 7dbd
-0.013298457 -0.038419846 0.02659536 -0.017190486 0.05770823 -0.0072686076 0.04508079 -0.024720458
0.060490817 0.037869878 0.033334687 0.07634394 0.022680687 -0.056606226 -0.06187977

stem.6.weight f4 [15, 15, 3, 3]
00000000: d8db 40bc 1b29 14bd 6094 2a3b c2b9 5d3d
00000010: 0b67 0abd 520e 5b3d e05d e0bc c80a 8dbd
00000020: c0b0 e7bb 5a82 663d e824 123c 0c2e b93c
00000030: 28ee 443c 1018 623c c026 5a3b 84e5 acbd
00000040: 84f1 febc e220 583d 89dd a33d c759 9e3d
00000050: 50ec 51bd c6c8 d8bc 5888 6cbd 844f ba3c
00000060: 3a10 86bd b066 0b3c 8817 523c 90fa 35bc
00000070: a8e8 e0bc 5a66 35bd e328 913d 028d e3bc
00000080: 98a9 4cbc 4119 62bd ef3b a2bd 5c39 db3c
00000090: a543 903d 83f6 883d 00ce bd39 0d06 92bd
000000a0: 9d02 963d 4825 b23c c7e2 5abd b48d cbbc
000000b0: bc4b acbd 90d1 6b3c 003f f03c 9783 2fbd
000000c0: a88a e23c e089 dbbc 7453 27bd 4bf3 853d
000000d0: e048 c8bc 676b 31bd 5002 2ebc 62a7 20bd
000000e0: 3acf ecbc fcbf 7cbd 7365 0abd 40c8 1f3b
000000f0: b5e1 3dbd 0071 f63a 00f1 77bd b99a 8bbd
00000100: a0d1 bfbb dc49 003d 6f16 a93d 3495 abbd
00000110: 8577 60bd 283b 323c b7f1 9f3d 96a8 03bd
00000120: d056 37bd 047f d33c 1e86 4c3d 96fd a9bd
00000130: 12e6 f9bc 7b98 6fbd d8ef 983c 8f59 23bd
00000140: a2c4 623d 10f3 9fbd 06fe 793d 1805 54bc
00000150: 30c6 8dbb d02f 81bd 0092 813a 907f d43b
00000160: 684d 92bd b31d 04bd 2980 9fbd ac8d 1b3d
00000170: f1c9 923d 22e0 4e3d 3275 ccbc 308b 1ebd
00000180: b864 09bc 76f0 69bd 3ed9 033d 7315 2dbd
00000190: 8fed 49bd 18c3 273c 4a75 2fbd 11d8 993d
000001a0: 1f0d 92bd 66ed 96bd ae9e 4f3d 93ba 8bbd
000001b0: 1a69 98bd f0ee 5dbc 3030 d93b 0e58 313d
000001c0: f240 4d3d 767f 4a3d a8f8 1c3d 78f9 8dbc
000001d0: 008c d13a 8374 2bbd 510d 9fbd f8fb 93bd
000001e0: 287e 40bc 3097 ce3c 1c9a bebc e407 eabc
000001f0: eaf6 2b3d 7462 d73c 1b2c 20bd 905a b93c
00000200: 541d 033d 84de 983c 3eac 74bd e6dd aebd
00000210: b274 7a3d c068 c8bb 3a1b f8bc 3c2d f33c
00000220: e6be 6abd 0249 143d e211 333d 621f 363d
00000230: 68a5 a53c 30d3 1f3c 86bc 093d e8df 163d
00000240: 8a89 193d 32fd 6bbd 8f13 a8bd 6423 d63c
00000250: 2fdb 65bd 4894 f3bc 1a52 c6bc 8062 a13a
00000260: 38db c93c e7da 873d df8c a73d a451 1bbd
00000270: 007a f539 fccc d1bc 968c c1bc 551b 8dbd
00000280: 328b 2abd 53af 19bd 2aac 173d 982d 053d
00000290: a836 86bc 638c 943d 9cf5 f03c 9808 51bd
000002a0: 4409 bcbc e4f8 75bd 1819 1d3c a8d8 043c
000002b0: c02b 203c aa7f fdbc 009f f7bb c1a2 24bd
000002c0: 92c8 693d 303c 23bc 98e3 a8bc a8bc 8f3c
000002d0: 8ac7 3a3d 80fb 59bc aa5c 1f3d 109e a9bc
000002e0: 6839 a53c 7a24 4ebd 8a87 0f3d eb34 19bd
000002f0: d3b8 51bd ea66 f5bc a687 473d 6f4a 28bd
00000300: 674e 60bd f338 88bd 6ef3 34bd 0013 ef3a
00000310: 88b1 5cbd 500e 3c3c 67c2 73bd ac86 a8bd
00000320: b5c4 5fbd 6deb 803d 405d 16bc 68ec edbc
00000330: 7a63 debc 20c8 0a3d 929e abbd 9938 a53d
00000340: 89ed 1dbd 1a74 94bd 3e62 0abd fbdd 9a3d
00000350: e174 8ebd bc6c 0abd 6c49 903c 9ea5 fcbc
00000360: 40fe db3b eae5 40bd 9c2f 85bd c19c 9e3d
00000370: ad53 81bd 8dee 94bd a895 b4bc 6d5b a93d
00000380: 5e1c 323d f66d 543d d0db 963b befb 743d
00000390: 7e8d 24bd aa84 74bd 84b5 873c 5843 67bc
000003a0: c409 72bd 80a0 413c 00c8 19b9 f8b4 bbbc
000003b0: 2eaf e5bc 6c14 aa3c 9071 dbbb 044d a4bc
000003c0: e583 853d f8b2 ca3c d827 683c 9d1b 893d
000003d0: eb8f aabd e31f a83d 463b 333d ce63 5d3d
000003e0: 31f8 9fbd 0087 e93a b55e 853d ee3c 67bd
000003f0: 2ccf a8bc 460a 0dbd 1654 513d 5e9b 96bd
-0.011771165 -0.036172014 0.002602838 0.05413223 -0.033789676 0.053480454 -0.027388513 -0.06886822
-0.007070631 0.056276657 0.008919932 0.022604965 0.0120196715 0.013799682 0.0033287257 -0.08442214
-0.031121023 0.052765734 0.08001239 0.077319674 -0.051250756 -0.026462924 -0.057747215 0.022742994
-0.06546064 0.008508369 0.012822993 -0.011107102 -0.02745469 -0.044287063 0.07087877 -0.027777199
-0.012491606 -0.055199865 -0.07921588 0.02676075 0.07044152 0.066876434 0.0003620237 -0.0713006
0.07324717 0.021746293 -0.053438928 -0.024847843 -0.08412883 0.014393225 0.029326916 -0.042850103
0.027654007 -0.026799142 -0.04085107 0.06540545 -0.024448812 -0.043315317 -0.0106206685 -0.03922213
-0.028907407 -0.061706528 -0.033788156 0.0024380833 -0.04635783 0.0018801987 -0.06053257 -0.068166204
-0.0058538467 0.031320438 0.08256232 -0.083780676 -0.054801483 0.010878362 0.07809775 -0.032143198
-0.044760525 0.025817402 0.04993259 -0.08300321 -0.030505214 -0.058495026 0.018669054 -0.03988033
0.055363305 -0.07810032 0.06103327 -0.012940668 -0.0043266043 -0.06307948 0.000988543 0.006484933
-0.0714367 -0.032254886 -0.077881165 0.037976906 0.071674235 0.05050672 -0.024958227 -0.03870696
-0.00838583 -0.057114087 0.0321896 -0.042256784 -0.04929882 0.010239385 -0.042836465 0.075119145
-0.07131409 -0.07369499 0.050688438 -0.068226956 -0.074419215 -0.013545737 0.006628059 0.043296866
0.050110765 0.049437962 0.038323075 -0.01733087 0.0015987158 -0.04185916 -0.07766212 -0.072257936
-0.011748828 0.025218576 -0.023266844 -0.028568216 0.041983522 0.026292063 -0.039104562 0.022626191
0.03201039 0.018660791 -0.059734575 -0.085384175 0.061146446 -0.006116003 -0.03028642 0.029684655
-0.05731096 0.03620244 0.043718226 0.044463523 0.020220473 0.009754941 0.033627056 0.036834627
0.037484683 -0.057614513 -0.082068555 0.026139922 -0.056117233 -0.029733792 -0.024209071 0.001231268
0.024640664 0.06633549 0.08181166 -0.037919655 0.0004682094 -0.02561044 -0.023626607 -0.06889979
-0.041636653 -0.037520718 0.037029423 0.032514185 -0.016383484 0.07253339 0.02941399 -0.051033586
-0.022953637 -0.060051814 0.009588502 0.0081082955 0.009776056 -0.030944664 -0.007556796 -0.040194277
0.057076044 -0.00996308 -0.020616338 0.017546013 0.04560045 -0.013304591 0.03890673 -0.020705253
0.020168975 -0.050327756 0.03504137 -0.037403982 -0.051201653 -0.0299563 0.04871335 -0.04108661
-0.05476227 -0.06651487 -0.044177465 0.0018239915 -0.053880244 0.011478022 -0.05951157 -0.082288116
-0.054630954 0.06294904 -0.009177506 -0.029043391 -0.027147043 0.03388226 -0.08379854 0.08067436
-0.03855661 -0.07248707 -0.033785097 0.07561871 -0.06955887 -0.033795103 0.017613135 -0.030840691
0.0067136586 -0.047094263 -0.065032214 0.07744742 -0.06314788 -0.072720625 -0.022044018 0.08269391
0.043484084 0.05186268 0.0046038404 0.059810393 -0.040174 -0.05969683 0.016566046 -0.014115177
-0.059091344 0.011818051 -0.00014665723 -0.022913441 -0.028037634 0.020761691 -0.0066968873 -0.020056255
0.065192975 0.024743542 0.014169656 0.0669472 -0.083282314 0.08209207 0.0437577 0.05405026
-0.07811011 0.0017816722 0.065122046 -0.05645459 -0.0206066 -0.034433626 0.05110558 -0.07353853

stem.6.bias f4 [15]
00000000: f96c 31bd 5e91 64bd 99a1 c1bc 31e7 94ba
00000010: 31a2 24bd 81e1 c13c ffb6 8bbd 9d97 a83d
00000020: 2cb8 a13c 1e56 84bd 21ca 35bd 325e 9d3d
00000030: e4e5 a23d 4cbc 4c3d 1005 663d
-0.043316815 -0.055802695 -0.023636626 -0.0011360404 -0.04019374 0.023667099 -0.06822013 0.08232043
0.01974114 -0.06461738 -0.04438222 0.07683982 0.079540044 0.04998426 0.05615717

stem.8.weight f4 [20, 15, 3, 3]
00000000: 00a5 043c 7ea3 45bd e5e5 9e3d fcd2 b33c
00000010: d145 04bd 7841 703c 44ff 55bd 38f3 013c
00000020: 4098 30bc a890 ccbc b945 47bd e829 76bc
00000030: ab91 983d dcff 56bd e516 0dbd 0c24 80bc
00000040: 2c12 9bbd 545a 8dbd 1523 9ebd 2d28 bcbc
00000050: ff73 723c 52c8 42bd 270a 2dbd 5f31 99bb
00000060: b130 e8bc de51 a53c 0627 77bc 293a 883c
00000070: 0f13 893d 0624 85bd 1a7f cc3b 6f47 99bd
00000080: af68 983d 8951 9c39 4c6b 5a3c 211d cf3c
00000090: cea2 fdbc 9f36 08bd 9ab5 22bd 9b4f 77bd
000000a0: 641a 123d 20b5 61bb 8a55 33bd 5da8 9e3d
000000b0: 9b14 86bd 4851 3a3d 6a8b 1fbc 6912 0abd
000000c0: 9189 04b9 aca8 2bbd 6b71 a33c e73f 373b
000000d0: 5b58 70bd 1c18 72bd de7b 633d f09a d43b
000000e0: c4f4 a2bd d4b2 71bd b35b 813d b583 9f3d
000000f0: b8d9 53bc 70b3 003c 607a 1dbb b946 953d
00000100: ab62 ffbc 2311 b0bc 2921 3e3d 35cd 31bd
00000110: afdb 833c c840 56bd 392d 69bd 1984 e73c
00000120: e904 5abd 4815 973d 5923 cabc fe58 ad3d
00000130: 9c9d 9c3d 91d4 2ebd 2ffb 533b f18f 8e3d
00000140: afe7 2c3c f676 763d 2e28 463d 24b8 ba3c
00000150: 7818 0c3c 6814 9b3c 80b0 1e3a 2412 b83c
00000160: e8da e73c 9d34 ab3d fe25 6cbd e092 6fbd
00000170: 9a5b a8bd fbe0 e63c f46d 013d a2c8 4c3d
00000180: 3633 653d e8b3 9b3c 4e1a 5abd 3ce9 04bd
00000190: a700 1ebd efed f03c 788e 553b 5a4e b13d
000001a0: ddd6 e83c 8334 95bd bf93 04bd 0bbd acbc
000001b0: 51a1 623d 8ab2 823c 720a ab39 3f29 2b3d
000001c0: c56b 8f3d fbd7 6ebc c22f aa3c 7eee 973d
000001d0: 2b40 31bd 02d4 253d c73f 8fbd d748 89bc
000001e0: 4acd eebc 2ce8 883d 8156 58bd 5848 e43c
000001f0: 9093 8bbd d4e4 afbc 92cd 883d 1148 8cbc
00000200: f0da 973d 0cba 9abd e0de 4cbd e05e c2bc
00000210: 87ff 253d 2e81 97bb ba8c aabc f097 a2bc
00000220: 3e83 3b3d 45a1 a43d 7c47 81bd 36b0 793d
00000230: 5cfd 55bd 19fb abbd 4236 a5bd 8eaa 82bd
00000240: c21f 393d e51d 5ebd caa9 86bd 4c51 acbc
00000250: 816e 89bd 8471 e63c 60e3 553c 8826 9abc
00000260: 8e01 97bd 205c 0d3c 4e99 473d 0052 ba3a
00000270: 548f e33c c831 043c c45d db3c 8c78 73bd
00000280: 82eb 163d 46bf 3c3d 93b1 4cbd c99b 09bd
00000290: 0042 0dbc 9590 a23d 80e0 7c3c 30fe 0d3c
000002a0: 640a 9ebc 62c3 9ebd 2858 5abd b453 f83c
000002b0: 441f f73c 4f79 973d 8c9d bf3c 18b0 cebc
000002c0: 9465 c3bc dcfa 863c 82c0 e1bc 8879 613c
000002d0: a0df 9ebd b304 5ebd 904d 1d3c fece 623d
000002e0: a657 67bd c8a4 5bbd e7e1 45bd 6012 14bb
000002f0: 028c 023d 64a6 be3c 0927 9cbd 465d 483d
00000300: ab03 93bd f2ec edbc 4eee 83bd deb1 88bd
00000310: e998 36bd 3e75 63bd e8ca 503c 08a9 613c
00000320: 10c7 a93b 5b6a 813d be87 2d3d 7813 8a3c
00000330: 54ba bb3c 06e6 5d3d 13f3 9c3d 0dec 9abd
00000340: bc15 84bc f809 09bd 8071 3dbb e0a9 90bd
00000350: 9966 8ebd 7ed2 84bd 0047 d1b9 085d b6bc
00000360: 4801 5c3c 44d4 ba3c ca7f 27bd 4023 79bb
00000370: 167d 613d 958f a9bd 48ab 663c 7232 213d
00000380: 5bc9 08bd a2ca a9bd 1a85 f0bc 0889 173d
00000390: 18d2 4ebd 65e0 8c3d 6406 66bd cbd1 8a3d
000003a0: de0c 313d f87c 5cbd 9846 0cbc 5a25 9bbd
000003b0: 0d0e 4abd 86d7 43bd 0097 783b 399c 8f3d
000003c0: 180f 103c a0be afbc 50a5 ac3b 1aca 133d
000003d0: 80ad f3bc d45c 9bbd f88d c8bc e23a 7d3d
000003e0: d322 aebd 8c91 ab3c ae71 89bd e00e 383b
000003f0: 231a 9f3d e4e8 8fbd e3d8 59bd 7b30 4bbd
0.00809598 -0.04825162 0.07758693 0.021951191 -0.032293145 0.0146640465 -0.052245393 0.007931523
-0.010778487 -0.024971321 -0.048650477 -0.01502464 0.07449659 -0.0524901 -0.034445662 -0.015642188
-0.075718254 -0.06901994 -0.07721535 -0.022968376 0.014798163 -0.04755432 -0.04224601 -0.004675075
-0.02834353 0.020180639 -0.0150849875 0.016629295 0.06693088 -0.065010116 0.0062407376 -0.07484328
0.07441842 0.00029815387 0.013331246 0.025282444 -0.03096142 -0.033255216 -0.03972397 -0.060378652
0.0356697 -0.0034440234 -0.04378275 0.077469565 -0.06546899 0.045487672 -0.009737829 -0.033708964
-0.00012639748 -0.041908905 0.019951543 0.0027961673 -0.058678012 -0.059105024 0.05553805 0.0064881966
-0.079568416 -0.059008434 0.06316318 0.07788793 -0.012930326 0.007855281 -0.002402924 0.0728888
-0.031174978 -0.021492546 0.046418343 -0.04340859 0.016095964 -0.052307874 -0.056927893 0.028261231
-0.05322734 0.07377106 -0.024675058 0.084642395 0.07647249 -0.042683188 0.0032345762 0.069610484
0.010553285 0.060172044 0.048378162 0.022792883 0.008550756 0.018930629 0.0006053522 0.022469588
0.028302625 0.083596446 -0.05765342 -0.05848968 -0.082205966 0.02818345 0.031599 0.049996026
0.05595704 0.019006684 -0.053247742 -0.032448992 -0.03857484 0.02941033 0.0032586139 0.086575225
0.028422767 -0.072854064 -0.032367464 -0.021086236 0.055329625 0.015954275 0.00032623444 0.041787382
0.07002977 -0.014577861 0.020774726 0.07418536 -0.043274086 0.04048539 -0.069945864 -0.016758366
-0.029150624 0.06684908 -0.05281687 0.027866527 -0.06815255 -0.021471418 0.066798344 -0.017124208
0.07414806 -0.07555017 -0.050017238 -0.02372688 0.040526893 -0.0046235537 -0.020819057 -0.01984784
0.04577946 0.08038572 -0.06312463 0.060959063 -0.052243575 -0.083975025 -0.080669895 -0.06380187
0.045196302 -0.05422773 -0.065753534 -0.02103486 -0.0671053 0.0281303 0.013054699 -0.018817201
-0.073733434 0.008627921 0.048730187 0.0014215112 0.027778305 0.008068509 0.02677811 -0.059441134
0.03684569 0.04608085 -0.049974035 -0.033595834 -0.008621693 0.07937733 0.015434384 0.00866656
-0.019292064 -0.0775211 -0.05330673 0.03031335 0.030166276 0.07396185 0.023390554 -0.025230452
-0.023852147 0.016477041 -0.027557615 0.013761885 -0.07757497 -0.0542037 0.009601012 0.055373184
-0.056480072 -0.053623945 -0.04831114 -0.002259396 0.031871803 0.0232727 -0.07624633 0.048917077
-0.07178434 -0.029043648 -0.064419374 -0.066745505 -0.04457942 -0.055531733 0.012743689 0.01377321
0.005181201 0.06319114 0.042365782 0.016854987 0.022915997 0.054174446 0.0766355 -0.07564554
-0.016123645 -0.033456773 -0.0028906763 -0.07063651 -0.06953163 -0.06485461 -0.00039916486 -0.022261158
0.01342804 0.022806294 -0.040893354 -0.0038015395 0.055050932 -0.08279339 0.014078923 0.03935475
-0.033395153 -0.08290602 -0.029360343 0.036995918 -0.05049333 0.06878737 -0.05615844 0.06778296
0.04322516 -0.053830117 -0.008561753 -0.075754836 -0.049329806 -0.04781296 0.00379318 0.07012219
0.008792661 -0.021453202 0.00526873 0.03608141 -0.029745817 -0.07586065 -0.024481758 0.061823733
-0.08502736 0.020943426 -0.06711136 0.0028085038 0.07768657 -0.07026842 -0.053185355 -0.04960678

stem.8.bias f4 [20]
00000000: b098 50bc d95e 95bd 9488 69bd e420 9abd
00000010: 792e 19bd 3b38 56bd 943b b1bc fefc a93d
00000020: 7c44 7fbd 2420 203d 51cf 18bd 9858 543c
00000030: c02a 6a3d 72fb 5dbd 3028 a0bb 00cd 95bb
00000040: 9cd6 503d e66d fa3a f058 35bd ad99 bdbc
-0.012731716 -0.072934814 -0.057015017 -0.07525805 -0.037397835 -0.05229972 -0.021634854 0.083002076
-0.06232117 0.03909315 -0.037307087 0.0129605755 0.057169676 -0.054194875 -0.004887603 -0.004571557
0.050985917 0.0019106239 -0.04427427 -0.023144567

policy_conv.weight f4 [2, 20, 3, 3]
00000000: 59ab 423d 4c7a 613d b7df b03c 6d2b 47bd
00000010: e73d 953d 42a6 943b 62a8 e3bc 3e01 e53c
00000020: 0d29 90bd 3bcc 2dbd 00b3 113c a01e 173d
00000030: 6cf9 66bc a825 2dbc 7851 3b3d 483d 72bc
00000040: 9017 753c 00f6 5cb9 8440 3ebd f898 db3c
00000050: eb50 823d 6a55 1d3d 040e 283d 89c1 7bbd
00000060: 5338 80bd c6e6 ebbc 9592 27bd 2095 84bd
00000070: bdc7 92bd c94d 813d 1003 d03c e04d a9bc
00000080: 9095 97bc e4be 52bd ec2a 4dbc f030 bb3b
00000090: 3726 01bd 8c3c 77bd a01c 5b3b 9acd d9bc
000000a0: 646a 803c 9703 8c3d b865 d23c d656 e2bc
000000b0: 9422 94bd eca5 3fbd 84f7 56bd 6005 47bb
000000c0: 505c f23c d470 74bd 0679 243d 009e dc39
000000d0: 8ca3 113d f027 b83b a0eb 0a3d 097e 82bd
000000e0: 60c0 fbbb 9872 273c c245 fdbc c0d1 69bb
000000f0: e004 67bc fca2 293d bc4a 70bd aa16 44bd
00000100: 1302 463d d5a4 693c 7d7f 863c a33a 29bd
00000110: f8b0 e5bb 7397 643d 1e27 723d 1193 c03c
00000120: fea3 0cbd 2870 b9bc 3e0c 6ebd a069 2a3c
00000130: 1e23 3cbd 84cb f93c fcb9 d93c 1000 333d
00000140: 24f4 57bc d1fe f23a cf2c b0b9 4033 69bd
00000150: 9b01 3ebc 43d8 e03c d76e 033d 675a 02bc
00000160: 50f4 573c f332 823d fb2c 3e3d b23f 96bd
00000170: e4de 85bd 1eff 3abc 2a2d 90bc b613 e23c
00000180: 320d 823d 963b 0ebd 97d7 dcbc 59f7 7dbd
00000190: b4f6 39bd efe4 523d 2853 193d 28ef 1dbd
000001a0: 9e8f 883d 9ae9 d8bc 3125 683d 67c9 823c
000001b0: d61b 123c cc8c 8abd 2c7c 48bc d407 963d
000001c0: fa39 553d c812 aaba d831 25bd 08fb efbc
000001d0: e4e1 cebc 84c6 73bd fe9f 703d 1ae4 47bd
000001e0: 8853 c63c 4493 0ebd b9ce 853d 6880 d33c
000001f0: 1930 80bd 6e81 eabc c7ae 923d 276a 61bd
00000200: a866 e5bc e86a 263c 18c8 df3c dbd4 943d
00000210: 8208 1d3d 82ee 653d 1a66 49bd ce12 4c3d
00000220: c6b5 28bd b0ba 863b e4c1 4fbd d260 7cbd
00000230: 9eb3 42bd b882 3f3c b50b 8d3d 28c5 243d
00000240: be91 20bd 9243 2c3d 958b 2b3d 6ec4 a9bc
00000250: 4d39 043d c022 c6bc 889f 323d b931 963d
00000260: b7ce 42bd 3430 ffbc d9f2 093d 9687 993d
00000270: 7fb3 c7bc badd dfbb 69af b3bc 26b4 01bd
00000280: 2a7d 88bd 34d8 a83c 8107 8ebc cd46 5bbd
00000290: 26f9 82bc 64a4 68bd 38e3 513d e111 373d
000002a0: 7f7b 8f3d 4d03 263b f3b4 1abd 2b28 ee3c
000002b0: 8dce 033d f7f7 893d ee6b d9bc 7041 f03c
000002c0: 61b4 90bd 3891 463c 9559 2d3d 31d4 53bd
000002d0: cc44 2b3d e20f e2bc e0e1 363b 60a2 8cbd
000002e0: 9ce0 183d 20c3 123b 5852 9a3c 3ed0 733d
000002f0: b540 8b3d 6670 09bd 7032 71bd 04ee a43c
00000300: 0b98 2cbd 1824 2e3d 2afe 763d d932 8abd
00000310: 208b 073b c4d0 4cbd d6b3 90bd 9527 833d
00000320: 9c54 ff3c e8fa ef3c 4a29 2fbd 5cba 8abd
00000330: 8484 813c 8a4b 87bd a449 8c3c 5f88 93bd
00000340: cacb 7e3d 60bb 1c3b 98e4 033c d281 6c3d
00000350: 5a97 a1bc ae53 5f3d fdc5 8dbd e41e 49bd
00000360: e3c0 8b3d a5d7 5cbd 9c44 45bd fc29 00bd
00000370: 1a65 88bd 32a5 8abd c25c 5d3d d88a 4abc
00000380: 9340 883d f28d 1b3d 7fd6 8f3d 341b 093d
00000390: 0027 20bc 60ba 1cbc 50c7 5dbd b6e1 603d
000003a0: 7e5b 69bd 527c 89bd d0db fa3c 2774 40bd
000003b0: 4c84 cc3c e48a 4b3d e082 303d f4c9 7cbd
000003c0: a8d5 65bd 8e09 433d 62ab 7a3d 9a9d 583d
000003d0: bb75 2dbd 1db8 813d 4d8f 2abd b85a 72bc
000003e0: 961c efbc aac8 633d f284 6c3d 9ca7 cfbc
000003f0: c212 543d 005a 24bc bb82 07bd f81a 1b3d
0.04752669 0.055048272 0.02159105 -0.0486254 0.072871976 0.004536421 -0.027790252 0.027954694
-0.0703908 -0.042431097 0.008892775 0.03689444 -0.014097553 -0.01056806 0.04573199 -0.014785118
0.014959231 -0.00021072477 -0.046448246 0.02680634 0.0636309 0.038411535 0.04102899 -0.061463866
-0.06260743 -0.028796565 -0.040911276 -0.06473756 -0.07167003 0.063136645 0.025392085 -0.020667017
-0.018503934 -0.05145158 -0.01252244 0.005712621 -0.031530585 -0.060360476 0.003343381 -0.026587296
0.015675731 0.06836622 0.025683269 -0.027629297 -0.07233158 -0.046789095 -0.052482143 -0.0030368194
0.029585034 -0.059677914 0.04015448 0.0004207939 0.03555636 0.0056199953 0.033916116 -0.063716955
-0.007682845 0.010220192 -0.030917052 -0.0035678 -0.014100283 0.0414152 -0.058665022 -0.047873177
0.048341822 0.01426049 0.016418213 -0.041315686 -0.0070096217 0.055808496 0.059119336 0.023507627
-0.034336083 -0.022636488 -0.058117144 0.0104011595 -0.045931928 0.030492552 0.026577942 0.04370123
-0.013180766 0.0018539076 -0.0003360272 -0.05693364 -0.011597062 0.027446872 0.032088127 -0.007956124
0.013180807 0.06357374 0.046429615 -0.07336368 -0.06536654 -0.011413364 -0.01759966 0.02759729
0.06350173 -0.034724794 -0.02695827 -0.062003467 -0.04540129 0.05148786 0.03743282 -0.038558155
0.06668018 -0.026478577 0.056676093 0.015965177 0.008917769 -0.06765136 -0.012236636 0.07325712
0.052057244 -0.0012975568 -0.040330738 -0.029294506 -0.025254197 -0.05951549 0.05874633 -0.04880152
0.024209753 -0.034808412 0.0653357 0.025818065 -0.06259174 -0.02862617 0.071622424 -0.055032875
-0.028003052 0.010157324 0.027317092 0.072671615 0.03833819 0.056135662 -0.049169637 0.04982262
-0.041188978 0.0041116104 -0.050722018 -0.061615773 -0.047534578 0.011688881 0.068869986 0.040227085
-0.03920149 0.042056628 0.041881163 -0.020723548 0.03228121 -0.024186492 0.043609172 0.073337026
-0.04756042 -0.031150915 0.033678863 0.07496564 -0.024377583 -0.006831852 -0.021934228 -0.031665944
-0.06664498 0.020610906 -0.017337563 -0.053534318 -0.015987944 -0.0567974 0.051242083 0.044694785
0.07005977 0.0025331557 -0.037770223 0.029071888 0.032179404 0.06736749 -0.026540723 0.029328078
-0.070656545 0.012119584 0.04232176 -0.051716033 0.041813657 -0.027595464 0.0027905628 -0.06866908
0.03732358 0.0022394136 0.018838093 0.059524767 0.06799451 -0.033554457 -0.05888599 0.020133026
-0.042137187 0.04251489 0.060300983 -0.0674798 0.002068229 -0.050003782 -0.07065551 0.06404034
0.031168275 0.029294446 -0.042763986 -0.067738265 0.015810259 -0.06606205 0.017124958 -0.07203745
0.062206067 0.0023915395 0.0080501065 0.057740994 -0.01972549 0.054523163 -0.06922529 -0.049101725
0.068238996 -0.053916592 -0.048161134 -0.03129004 -0.066599086 -0.0676979 0.05404354 -0.0123622045
0.066529416 0.037977166 0.07023334 0.03347321 -0.009774923 -0.00956592 -0.054145157 0.054902755
-0.05697202 -0.06713165 0.030622393 -0.04698577 0.024965428 0.049693003 0.043093562 -0.061716035
-0.05611196 0.047616534 0.0611986 0.052884676 -0.042348605 0.06333945 -0.04164057 -0.014792137
-0.029188436 0.05561129 0.057743974 -0.025348477 0.0517757 -0.010031223 -0.03308366 0.037867516

policy_conv.bias f4 [2]
00000000: 2c8e 6a3d 8828 6abd
0.057264492 -0.05716756

policy_fc.weight f4 [225, 450]
00000000: 02d7 21bd 0955 f4bb 853d b8bc 476c 783b
00000010: 77ad 283d 5f66 35bd 9f33 bcbc 9c1a 23bd
00000020: 0b84 533c 7d5c 27bd 294a 153d 3002 82b9
00000030: f54d f8bc e0eb 1bbc b372 03bd e0a3 bb3c
00000040: c12c 063d 0084 c9bc e37b 803c aef2 443c
00000050: 9341 f53c b15c 373d f323 9f3c 7b24 2fbd
00000060: cb72 ddbb 1a23 21bd 52c3 38bd 3c9e 87bc
00000070: 1b0b 19bd 4414 2bbc 3658 093d 5070 23bd
00000080: d977 babb e01d 78bc 8bc7 1d3d fec8 103b
00000090: 6484 55bc f254 dd3c 6f7a 823b b926 f2bc
000000a0: 5264 b83c 1266 39bd 7f79 39bd 6374 01bd
000000b0: 530b 9a3c 3d87 ee3c 7a17 d4bc 45b8 1e3d
000000c0: 2ff1 363d 6ac2 c53c 8e8e 13bd a17b 223b
000000d0: bc22 76bc 66c1 88bc 7adf 8e3b 1040 7abc
000000e0: dfa5 273d ebbd a5bc 438f 1cbd 3dff 3abd
000000f0: c888 203b b2f8 f93c bc7d 843a cb9f 77bc
00000100: 0e1c a43c 129c 923c 6cb7 a9bc c23b af3b
00000110: 29a6 41bd aaea e43c 71f8 3c3d ddaa 083d
00000120: 6113 a2bc 15ff 303d c17e bbbc 7cf0 14bd
00000130: 7c18 4f3c b656 8d3c 07df 11bd 1e08 953c
00000140: 6818 36bd 38fa 69ba 6965 a6bc cd91 97bc
00000150: a50b c5bc ee9c ddbb 4bef 3ebd 1fa7 0fbd
00000160: 4545 e4bc a099 b63c dcde 99bb 99a2 ffbb
00000170: 7e2a 293a 578a f0bb 660f d13c 6ab7 8e3c
00000180: 4280 fdbc 5cb4 33bb 1db5 2fbd e197 10bd
00000190: 57e6 8d3b 90d2 33bd a30b 2b3c 561a 503c
000001a0: b527 53bc 846c 1c3d c918 3c3d 5bef cbbc
000001b0: 4e92 dabc 7e7b 2fbd 478e b83b 84c8 9bbc
000001c0: 04af 48bc 8ab1 b53c 7d23 303d cb55 1e3d
000001d0: 909c ebbc 80cf 7d3b 563b b0bc 98b7 8b3a
000001e0: 214f 05bd ad9a 1b3d 2e4c 5f3b 179c a1bc
000001f0: ef3f cebb b861 2fbc 1e62 fcbc 2f42 b8bb
00000200: 0aed f73c ba20 27bd fc97 143c 2008 baba
00000210: 5ea1 843c 126b f63c f58c 6f3a b455 f7bc
00000220: 0766 39bd e47c 36bd c9d7 303d a15d 71bb
00000230: afe9 253d 4b5a 233d 6625 86bc a733 42bd
00000240: 13d5 363d 6a67 80bc e69b dc3c 4536 c43c
00000250: 62f1 9b3c 87f7 ba3c a0cf c6bc 731e 023d
00000260: c68d 08bd d270 11bd 957f a3bc b286 0abd
00000270: 79c2 1a3d 98d6 1ebd f3b5 203d 5a34 d03c
00000280: d54a 3ebd cd87 203d 6128 0e3d 1e06 87bb
00000290: b312 443c d00c 1abd fa94 a4bb 6455 713c
000002a0: 7b2a 21bd ded5 df3c 15e3 3b3c 2821 3abd
000002b0: 6191 123d e6fe dd3c 55b4 313d a84c 613c
000002c0: e745 f9bc 6e92 da3c 76c4 9a3c df65 d6bc
000002d0: dad9 9bbc 06c4 0bbd 9fd4 92ba 1364 0d3d
000002e0: 5ad3 1abd ddec 0bbb 58d0 b6bb b774 b7bc
000002f0: 3b9d 6ebc 998f 083d 31ee 3a3d 2005 7839
00000300: 180f 3cbd a2a4 1ab9 6259 30bd b564 953c
00000310: 4133 debc 2260 b73c 04ea 0b3c f251 803c
00000320: 9850 bebb 3b26 5b3c 8ba6 3c3d bbba 8ebc
00000330: 9f9a acbc b974 243d 0188 093d 6254 973c
00000340: 2f13 793c d6c6 f9b9 64c0 b0bc c1b8 903c
00000350: 1135 bfbc 7aae 5f3c a1a1 f9b9 74ab 27bd
00000360: 6ea8 3c3d a1a8 9abc 34ae f2bc 84ae bbbc
00000370: 58b2 bcbc 7991 4b3b f77e 3b3d da06 583c
00000380: 8394 42bd 4047 d2bb 18d7 45bc 5a96 f63c
00000390: 48de 71bc 1dfd e6bc 2532 e8bc 0142 393d
000003a0: 7035 11bb 1093 2dbb 58a2 2ebd 3829 fd3b
000003b0: 3a19 11bd 6519 353d a034 a1bc 5cae 18bd
000003c0: 4ab2 a43c 606a 933a 224e adbc 2a64 11bd
000003d0: 94b3 32bc 70be 2abb d8e1 3cbd 0b09 36bd
000003e0: bcde 123c ec34 15bc 00f1 0839 a0b2 18bc
000003f0: 0a89 de3c 5ed5 a0bc debb c43c 4c2d 50bc
-0.039511688 -0.007456426 -0.022490272 0.0037906335 0.041181054 -0.04428708 -0.022973834 -0.0398203
0.0129098995 -0.040859688 0.036447678 -0.00024797162 -0.03031061 -0.009516686 -0.032091808 0.02290529
0.032757524 -0.024599075 0.015684074 0.01202075 0.029938495 0.04476613 0.019426322 -0.0427594
-0.006758069 -0.039340116 -0.045108147 -0.016554944 -0.037364107 -0.010441843 0.03353139 -0.03990203
-0.0056905565 -0.0151438415 0.038520377 0.0022092457 -0.013032053 0.027018044 0.0039818804 -0.02955948
0.022508774 -0.045263357 -0.045281883 -0.031605136 0.018804228 0.029117221 -0.0258901 0.038749952
0.044663604 0.024140555 -0.036024623 0.0024792927 -0.01502293 -0.016693782 0.0043601366 -0.015274063
0.04092967 -0.020232162 -0.038222563 -0.04565357 0.002449559 0.030514095 0.0010108273 -0.015113781
0.020032909 0.017896686 -0.020717345 0.0053477 -0.047277603 0.027943928 0.04613537 0.033366073
-0.019784631 0.043212015 -0.02288759 -0.036362156 0.012640115 0.017253261 -0.035613086 0.018192347
-0.04445687 -0.000892553 -0.020312028 -0.01850214 -0.024053404 -0.0067630922 -0.046614926 -0.03507149
-0.027865062 0.022290051 -0.0046957564 -0.0078013656 0.000645317 -0.00734071 0.025520038 0.017421443
-0.030944947 -0.0027420735 -0.042897332 -0.035301093 0.004330437 -0.04390198 0.010439786 0.0127015915
-0.012887885 0.038189426 0.045922074 -0.024894407 -0.026681092 -0.04284238 0.005632195 -0.019016512
-0.012248758 0.022179384 0.043002594 0.038656037 -0.028761178 0.0038728416 -0.021512669 0.0010659574
-0.032546166 0.037989307 0.0034072506 -0.01972775 -0.0062942426 -0.01070445 -0.030808505 -0.005623124
0.030264396 -0.040802695 0.009069439 -0.0014193095 0.016190227 0.030080352 0.00091381307 -0.030192234
-0.045263316 -0.0445527 0.04317454 -0.0036829489 0.04050606 0.039881032 -0.016375255 -0.04741254
0.044636797 -0.015674312 0.026929807 0.023951659 0.019035999 0.022823108 -0.024268925 0.03176732
-0.03333833 -0.035507984 -0.019958297 -0.03381986 0.03778312 -0.03877887 0.03923602 0.025415588
-0.046458084 0.03919201 0.034706477 -0.0041206023 0.011967349 -0.037609875 -0.005022642 0.014729831
-0.039347153 0.02732366 0.011467715 -0.045441777 0.035783175 0.027099084 0.04338487 0.013751186
-0.03042884 0.026681151 0.018892508 -0.026171623 -0.019024778 -0.03412249 -0.0011202282 0.034519266
-0.037799217 -0.0021350898 -0.0055790357 -0.022394521 -0.014563854 0.03334007 0.045637313 0.00023653032
-0.045912832 -0.00014747915 -0.043053992 0.018236497 -0.02712405 0.022384707 0.00853968 0.015664075
-0.0058079474 0.013375814 0.046057265 -0.017423024 -0.021069823 0.040150378 0.03357697 0.018472854
0.015202328 -0.00047641125 -0.021576114 0.017666223 -0.023340734 0.013652438 -0.00047613404 -0.040934995
0.046059065 -0.018879237 -0.029624082 -0.022910364 -0.02303426 0.003106205 0.04577538 0.013185227
-0.047504913 -0.006417185 -0.012075208 0.03010099 -0.014762469 -0.028196866 -0.028344223 0.04522896
-0.0022157095 -0.002648536 -0.04263529 0.007725861 -0.03542445 0.04421367 -0.019678414 -0.037275657
0.020104546 0.0011246912 -0.02115542 -0.035495915 -0.010907073 -0.002605345 -0.04611382 -0.044442218
0.008964237 -0.009106856 0.0001305975 -0.009319931 0.027164955 -0.019632991 0.024015363 -0.012706112
